save/py9.pt (torch, 169787 bytes, 14 tensors)

conv1.weight f4 [16, 1, 5, 5]
000000 4c 15 db 3c 2d 10 8a 3e 18 94 e9 3d da b6 3e 3c
       0.026743554 0.26965466 0.114052 0.011640275
000010 dd d8 6c be 24 98 8f 3d a5 08 f0 3d 75 ea 8f 3d
       -0.23129602 0.070114404 0.11720399 0.07027141
000020 51 c2 27 3d cc 4c 8e 3c 47 88 1e 3e a6 a1 0e 3e
       0.0409568 0.017370604 0.15481673 0.13928851
000030 44 66 14 be f9 88 b0 3d e2 06 ae bc 11 70 2c 3e
       -0.14492136 0.086198755 -0.021243516 0.16839625
000040 37 39 0e 3e 20 2f 76 3e c0 53 a8 3e 4e 73 ff 3d
       0.13889013 0.24041414 0.32876396 0.124731645
000050 1b d5 46 3d ee 9f 23 3e 96 07 ca bd f6 33 94 3e
       0.048543077 0.15978977 -0.09864728 0.28945893
000060 49 d7 97 3e 18 3f 0a be 47 fb 69 be df 7a c6 3d
       0.29656437 -0.13500631 -0.22849761 0.096914046
000070 01 ec 69 3e 11 42 25 bc 13 04 1d 3e 20 76 19 be
       0.22843935 -0.010086552 0.15333585 -0.14986467
000080 14 72 1a be 32 99 85 3d 3a ea f5 3d 8c ce 55 be
       -0.1508258 0.0652336 0.12007566 -0.20879573
000090 17 ef 81 bd 52 81 0e 3d de ea 8e 3e e3 7d 25 be
       -0.06344431 0.0347913 0.27913564 -0.16161303
0000a0 14 94 4a be 27 70 23 3d 64 bd 0d be 4a 98 33 3e
       -0.1978305 0.03990188 -0.13841778 0.17538562
0000b0 64 29 56 bd 8c d2 32 be 7b c3 d7 3b 81 48 2f bd
       -0.052285567 -0.1746313 0.0065845824 -0.042793754
0000c0 04 b1 d8 3d 40 6b cb 3d dc 20 95 bc 1a 8d 5e be
       0.10580638 0.09932566 -0.018204145 -0.21733513
0000d0 4e 84 4b be fe 88 87 be 2a a0 1f be 6d 44 f4 bc
       -0.19874689 -0.26471704 -0.15588441 -0.029817784
0000e0 bb 31 80 bd 50 c4 24 be a1 4c 6f 3e ab 51 92 3e
       -0.06259485 -0.16090512 0.23369075 0.28577933
0000f0 6a 92 20 3e 2b 15 68 3e 99 99 a0 3d 7f 83 d0 3e
       0.15680853 0.22664325 0.078417964 0.40725324
000100 aa 7b b5 3e 9d d1 c4 bd cc 08 64 3e 39 77 18 3e
       0.3544591 -0.09610293 0.2226898 0.1488923
000110 26 ca 37 3e 99 e9 ce bd 35 00 21 3d 20 21 d0 3c
       0.17948207 -0.10103149 0.039306838 0.02540642
000120 ac 79 32 be f4 b7 60 be 70 5d a5 be c9 5d 3f be
       -0.17429227 -0.21945173 -0.3229785 -0.1868812
000130 b3 51 83 bc 5c 9e 5c bd 55 3a af bd 62 72 09 3e
       -0.016030168 -0.05386196 -0.08556048 0.1342254
000140 f2 ce 26 3e 36 df 23 bd 17 17 f0 3d 35 df 2d be
       0.16289881 -0.040007792 0.11723154 -0.16979678
000150 0c 35 1d be 36 e6 e7 bd 41 ab 58 bd 3e 96 08 be
       -0.15352267 -0.11323206 -0.052897695 -0.13338563
000160 fd 41 23 be ef e3 e9 3d 68 d1 0a be d4 e2 2b be
       -0.15943141 0.11420428 -0.13556445 -0.16785747
000170 56 b6 14 3e ba ab 08 bd 82 fe 66 3e b4 44 3f 3e
       0.1452268 -0.033366896 0.22558025 0.18678552
000180 13 45 31 3e bb d9 97 3e 41 db 06 3e 49 ee d9 bc
       0.17311506 0.29658303 0.13169576 -0.026602881
000190 80 bd 2f 3e 55 5a 85 3d e3 c2 2a bc 81 84 04 3d
       0.17162132 0.0651137 -0.010422441 0.032352928
0001a0 d2 29 66 3e d0 f2 0a be 66 9d 03 be 33 ab a2 bb
       0.2247689 -0.13569188 -0.12853011 -0.004964256
0001b0 ac 56 26 be de 18 00 3e 2b 4f 4e be 8d 25 85 be
       -0.16244 0.12509486 -0.20147388 -0.2600521
0001c0 22 67 26 be a3 a1 cb 3c 4b 2e c8 3e 91 e3 32 be
       -0.1625028 0.024857348 0.3909782 -0.17469622
0001d0 85 b4 99 3d 0f 39 0e be 1d 5a 86 3e 52 b4 15 3e
       0.075051345 -0.13888954 0.26240626 0.14619568
0001e0 9f d2 c3 bd 64 66 b8 3d 1f 90 60 3d c6 41 86 3e
       -0.09561657 0.090039045 0.054824945 0.26222056
0001f0 3c 84 65 3e f8 00 d6 bc 30 52 08 be 18 66 bc bc
       0.22413725 -0.026123509 -0.13312602 -0.0229979
000200 88 78 33 be a2 ad c5 bd 58 be 4b 3e a3 b9 36 3e
       -0.17526448 -0.096522585 0.19896829 0.17844252
000210 3a 7d fc bd 96 4f d9 3c f5 b6 ad bc 88 c3 02 3e
       -0.123285726 0.026527207 -0.021205405 0.12769902
000220 48 53 f2 3d 90 2b 9c 3e ea 63 8a 3d 52 53 2a 3e
       0.11832291 0.30501986 0.06757338 0.16633347
000230 8c e9 f0 bc 80 35 23 be 2a a4 54 3e 61 49 e5 3d
       -0.029408239 -0.15938377 0.20765749 0.111956365
000240 94 f5 37 3e e6 e7 a8 bd 8b 2e 10 be 9c 3d 81 be
       0.17964774 -0.08247356 -0.14080255 -0.25242317
000250 dd 57 43 be 06 cf 5a be 32 3d 91 3d 9d e6 03 3e
       -0.19076486 -0.21368036 0.0709175 0.1288094
000260 d3 4e 07 3d 1d e0 aa 3d a0 e0 cb bd e7 11 74 be
       0.033034157 0.083435275 -0.09954953 -0.23834954
000270 5c 64 2a 3e c9 f3 d0 bd 4f 8f 90 3e 61 fb 2c be
       0.16639847 -0.10202748 0.28234336 -0.16892768
000280 c2 3e 04 be e6 66 87 3d 08 49 2c 3e ee 17 a3 3e
       -0.12914565 0.06611423 0.16824734 0.31854194
000290 33 9d 65 3e 8c f2 26 bd 60 ba bb bd a4 b3 43 be
       0.22423248 -0.040758654 -0.091664076 -0.19111496
0002a0 36 7d af bc 35 ef 22 3e 7e 7b 58 be ae 29 55 bd
       -0.02142201 0.15911563 -0.21140859 -0.052041702
0002b0 89 14 3c be 6f 11 55 3e 41 da 89 3e 62 0c 53 be
       -0.18367209 0.20807432 0.26924327 -0.20610192
0002c0 12 9f e1 3d a0 0c f5 3d a0 64 e2 3d e6 15 19 3d
       0.110166684 0.11965299 0.11054349 0.0373744
0002d0 16 5f 36 3e e5 5c 92 3e d9 c3 39 3e ff d9 9b 3e
       0.1780971 0.28586498 0.18141116 0.30439755
0002e0 bc 6a 40 3c fc a6 b5 3d 0f ee a8 bd 5d f6 27 be
       0.011744197 0.0886974 -0.08248531 -0.16402574
0002f0 a4 31 75 3e d5 5b 75 3e aa 0d a9 3c ac b5 a8 3c
       0.23944718 0.23960812 0.020636398 0.02059444
000300 cb 4c 09 bd cd 63 b8 bd b0 e9 3c 3c a8 c5 10 be
       -0.0335205 -0.090034105 0.011530325 -0.141379
000310 a3 c6 96 be 6f 59 8c be b9 54 a4 bc 76 64 c4 bd
       -0.29448423 -0.27411982 -0.02005993 -0.09589474
000320 cf cb 06 be a9 60 7a bd 65 0b 71 3c 01 d0 25 3e
       -0.13163684 -0.06112734 0.014712189 0.16192628
000330 23 1d 20 3d d5 41 1a 3e 63 e8 08 be c7 e9 61 3e
       0.039090287 0.15064175 -0.13369898 0.22061835
000340 e7 32 04 3e aa c5 e4 3c 54 c3 13 3e aa 41 af 3d
       0.12910043 0.027926285 0.1442998 0.08557446
000350 00 a6 cc bd 4e f2 43 3e bc d6 50 3d 19 e6 93 bd
       -0.099925995 0.191354 0.050986037 -0.07221622
000360 5b f3 12 3e f6 dc 54 bd 22 9a 0d 3e 7d 31 98 3d
       0.14350645 -0.051968537 0.13828328 0.07431314
000370 70 c8 01 3e 66 b6 62 be 34 65 bb 3d 18 41 4d 3d
       0.12674117 -0.22139892 0.09150162 0.050110906
000380 16 c1 31 3e 24 34 f0 bc 2b a7 f0 3c 8f 00 63 3e
       0.17358813 -0.029321738 0.029376587 0.22168182
000390 0a a6 31 3d c1 ae 22 be 90 f4 e2 3d d0 a5 00 3e
       0.043371238 -0.15886976 0.11081803 0.12563252
0003a0 de 6e 63 3e 9f be 33 be 30 c1 94 bd 55 a4 77 3d
       0.22210261 -0.17553185 -0.0726341 0.060459454
0003b0 70 81 8d 3d 31 e1 79 3d f0 31 81 be 73 6b 3c be
       0.06909454 0.061005775 -0.25233412 -0.18400364
0003c0 34 64 af 3d 4a 68 4f 3e 59 bb 51 be 66 f0 07 be
       0.08564034 0.20254627 -0.20481624 -0.13275298
0003d0 d1 6e 7c be d4 75 aa 3c 7b 51 80 3e 1b 31 43 bd
       -0.24651648 0.020808138 0.25062165 -0.047654252
0003e0 5a 3e a0 bd f8 33 5e 3d 97 34 36 3d 3b 65 5d 3c
       -0.078243926 0.05424878 0.044483747 0.013512905
0003f0 da 56 bb 3d 4f 35 61 3e 5d 2e 84 bc 85 18 74 be
       0.09147425 0.21992992 -0.016135389 -0.23837478

conv1.bias f4 [16]
000000 4f f5 66 bd e5 0a e3 3d 5d 10 90 bd a5 ef 3a 3d
       -0.05638629 0.11086062 -0.07034371 0.0456387
000010 89 20 b1 3c 9a 80 97 bd f7 6a 43 bd d3 50 e7 3d
       0.02162196 -0.07397576 -0.04770943 0.11294713
000020 03 3d 4f 3e 2e 25 3f 3e f4 eb 1c 3d c1 d5 5a bd
       0.20238118 0.18666527 0.03831096 -0.053426508
000030 ec 19 7e bd 5a 99 d1 bd 89 b9 54 3e 93 62 be 3c
       -0.06203644 -0.102343276 0.20773901 0.023240363

conv2.weight f4 [32, 16, 5, 5]
000000 fa 7e e1 3c e7 96 2f 3c 56 f7 40 bd 7e d9 12 bd
       0.027526367 0.01071713 -0.047110878 -0.035851948
000010 36 2f 26 3c 49 e7 60 3d 78 41 91 3c c7 9d 22 3d
       0.010143092 0.05490807 0.017731413 0.03970125
000020 10 59 78 bd 40 09 c6 bc e3 bf d6 3c 45 24 29 3b
       -0.06063181 -0.024174333 0.026214546 0.0025808972
000030 6b 0f c8 bc 8e 75 c6 bc ef 85 60 bc 4c 78 55 3d
       -0.024421414 -0.024225976 -0.013703807 0.052116677
000040 84 37 39 3d a4 0a 70 bd 78 95 61 3c a7 99 85 bb
       0.04521896 -0.058603898 0.013768546 -0.0040771547
000050 d6 7d 58 3d 5b 01 0c bd a8 1a df ba b6 ad ad bc
       0.05285438 -0.03418098 -0.0017021494 -0.021200996
000060 c6 ff 3f bd 0b 14 1d 3d 09 08 bd 3c fa f7 45 3d
       -0.046874784 0.038349193 0.02307512 0.048332192
000070 18 20 26 3d 40 23 43 39 e9 49 00 bb 29 df 26 bd
       0.04055795 0.00018609781 -0.0019575304 -0.040740166
000080 a6 79 0e bd e2 5a 48 bd 06 d4 08 bb 1d a2 d2 3b
       -0.03478398 -0.048914798 -0.002087833 0.006428017
000090 37 3b 61 bc c8 6f 34 3b fb 40 b1 3a 54 25 51 bb
       -0.013747028 0.0027532447 0.0013523394 -0.0031913118
0000a0 eb 95 4f bd d2 69 2b 3c b6 e0 6b 3c 44 a3 b0 bb
       -0.050680082 0.010462241 0.014396837 -0.0053905565
0000b0 00 4a 03 3d 72 c3 34 3d 7a 27 09 bd 57 c8 12 bc
       0.032052994 0.044131704 -0.033484913 -0.008958898
0000c0 e0 55 c8 bc 3e a6 42 3d 86 89 57 3c 18 5a 25 3d
       -0.02445501 0.047521822 0.013155347 0.040369123
0000d0 ca 9e 9f bb 8e 74 18 bd be 3b 17 3d d6 de 23 bc
       -0.004871224 -0.03722053 0.03692221 -0.010001859
0000e0 89 7e 83 3c 56 7f ae 3c a7 4a a7 bc f9 e0 35 bd
       0.016051548 0.021300953 -0.02042134 -0.044404004
0000f0 bd d8 28 3d 27 d8 0e 3d 35 a7 52 3c 63 3b 45 bd
       0.041222323 0.034874108 0.012857248 -0.04815234
000100 50 d2 8c 3b 03 ef 80 bd 45 e1 0d 3d c1 62 5c 3c
       0.004297532 -0.06295588 0.034638662 0.013451279
000110 43 da 88 bc 5b 35 cf bc 4a 75 11 3c 4e 34 ca 3c
       -0.016705638 -0.025293997 0.008878062 0.024683144
000120 88 2a d1 bc d9 22 2d bd 57 dc a2 bc de e3 85 bc
       -0.025532976 -0.04226956 -0.019880457 -0.016344007
000130 a2 d4 f4 bc 5a 2d 00 3d 80 fa b4 bc 47 51 02 bd
       -0.029886547 0.03129325 -0.022092104 -0.031815793
000140 e5 2f 83 3d 22 04 8a 3c 6c 92 4d 3d 83 db ab bc
       0.064056195 0.016847674 0.050188467 -0.020978695
000150 81 f3 14 bd 29 bb d0 bc 38 13 7f 3a fa 85 14 bd
       -0.036365036 -0.02547987 0.0009730342 -0.036260583
000160 dc 78 6e bc dc 87 21 3d e2 66 be 3c 74 0f 72 bd
       -0.014555182 0.039436206 0.023242418 -0.05909677
000170 b0 5c 7d bd 5b 71 a6 39 52 e3 7c bb b5 77 6a bc
       -0.06185597 0.00031746444 -0.0038587642 -0.014310767
000180 20 1c 73 bd 29 58 2d bd 6d c8 33 bd e5 73 20 bc
       -0.059352994 -0.042320404 -0.043892313 -0.009793256
000190 21 7d 41 3d 91 21 f8 bc 75 c4 e4 bc d4 7f e3 bb
       0.047238473 -0.030289443 -0.02792571 -0.0069427285
0001a0 69 37 56 3d 34 4c 51 3c 25 80 ce bb 74 91 38 bd
       0.052298937 0.012774516 -0.006301897 -0.04506059
0001b0 0d b1 45 bc 54 b7 f4 3c 66 06 cc 3c 9d b6 91 3c
       -0.012066138 0.029872574 0.024905395 0.017787272
0001c0 77 38 84 bd 96 66 2e bd 4c 20 14 3d 69 26 f4 bc
       -0.06456082 -0.042578302 0.036163613 -0.029803472
0001d0 cb 0d 8e 39 44 e8 1a 3d 4a 61 8b 3c 37 6e 97 3c
       0.00027094627 0.037819162 0.017014164 0.018485172
0001e0 eb 15 bf 3a d3 e2 cc 3c 97 7d 4c bd 32 8e df 3c
       0.0014578676 0.025010502 -0.04992446 0.027289484
0001f0 1e 05 68 bc 36 a9 2d bd 9d 4b 3d bd b2 1d de 3c
       -0.014161376 -0.0423977 -0.04621469 0.02711377
000200 23 e6 51 bc 8b 1d da 3c db a8 ce 3c 01 f9 d9 bc
       -0.0128112165 0.026625415 0.025227001 -0.026607992
000210 13 2e f9 3c b6 f7 fd 3c a9 7e 99 3c 44 de 0f 3d
       0.030417478 0.031001907 0.018737154 0.03512408
000220 17 86 76 3d 78 ba 6d bc ab ec eb 3c 16 64 84 bc
       0.06018647 -0.01450979 0.028799376 -0.016161006
000230 dc 14 4e bd 33 83 90 3c 66 f1 a7 3c 86 a4 b0 bb
       -0.05031286 0.017640686 0.02050085 -0.0053907065
000240 00 b5 5c 3b a0 04 17 3d e1 7e 2f bc 04 46 f2 bc
       0.003367722 0.036869645 -0.010711403 -0.029574402
000250 49 77 25 bd 34 9c 5c 3c 98 64 06 3d 49 22 ef 3b
       -0.040396962 0.013464976 0.032810777 0.0072977883
000260 4f 3d 86 3b 1f 1f 7c bc 6b 40 45 3d ab d1 30 3d
       0.004096664 -0.015388279 0.048157137 0.043168705
000270 74 ea 3b 3c 21 94 07 bc f0 92 b2 bc 9a 66 46 3d
       0.011469472 -0.008275063 -0.02179858 0.048437692
000280 67 e9 d6 bc d3 5c 55 bd cd 58 a2 bc ac 6c 39 bc
       -0.026234342 -0.052090477 -0.019817734 -0.011317413
000290 51 5f 69 3c 97 eb 0f 3d ea 72 74 bd 17 1f 83 3c
       0.014243917 0.035136785 -0.059679903 0.016006036
0002a0 a7 37 9e bc aa dd 77 3d 17 7a f5 bc 8e 3c 22 3c
       -0.019313646 0.06051413 -0.029965444 0.009902133
0002b0 ed 57 7d 3c 95 18 b0 3b da 8b ee bc b4 7f 14 bd
       0.015462858 0.005374024 -0.02911942 -0.0362546
0002c0 d9 49 4d bd af ca f4 3c 55 bb e8 bc c2 e3 af bc
       -0.050119255 0.029881803 -0.02840964 -0.021470908
0002d0 b8 27 1a bd 99 7a 24 bd 98 dc a2 3c 68 80 34 bd
       -0.037635535 -0.04015598 0.019880578 -0.04406777
0002e0 85 c3 d0 bc 90 be 9e 3c 57 16 9e 3c b1 8c 9a bc
       -0.025483856 0.019377977 0.019297762 -0.018865915
0002f0 6e 05 7e bc ef 6f ae 3c 9a a7 c0 bc 18 df b6 bc
       -0.015504224 0.021293608 -0.023517419 -0.022323176
000300 7a 9c f2 3b ba 9f 44 bc ba 1b f8 bc d4 f6 8b 3c
       0.0074039074 -0.012000972 -0.030286659 0.01708547
000310 7e 90 c7 3c 05 32 14 bd d3 89 0c bd 1f 7d d5 3b
       0.024360891 -0.036180515 -0.034311127 0.0065151597
000320 33 2c 06 bd 08 2a 75 3c e9 43 c7 3c d0 b8 3b bd
       -0.032756995 0.014963634 0.024324374 -0.045830548
000330 8d 96 dd bc 3a 44 02 3d 86 2f dd 3c fe 1e fb 3c
       -0.027049327 0.031803347 0.0270002 0.030654427
000340 b9 79 b0 bb 21 9f 30 3b 90 36 ea 3b 15 3b dc 3c
       -0.005385604 0.0026950317 0.0071476176 0.026883641
000350 82 d6 c3 3c 70 c6 6e 3c fd ec 57 3d f0 84 31 3d
       0.023905996 0.014573678 0.052716244 0.04333967
000360 72 fb 99 3b 1a e9 be 3b b5 f2 eb 3c 8e 1c 56 bc
       0.004699164 0.0058261277 0.028802255 -0.013068331
000370 a4 ae 1d 3d cd 84 89 3c f0 29 02 3d 8a 25 b0 bc
       0.03849663 0.016786957 0.031778276 -0.021502275
000380 c3 45 d6 bb d4 80 98 bc f8 67 29 3d cd ad 24 3d
       -0.006539078 -0.018616118 0.041358918 0.04020481
000390 5e 43 1b 3d 67 99 6e bd d9 33 3e 3d 2a 82 8d 3c
       0.037906043 -0.058251765 0.046436165 0.017273981
0003a0 b6 90 ce 3c a6 97 03 3d 46 b7 bd 3c f7 9b 09 3d
       0.025215488 0.032127045 0.02315868 0.033596005
0003b0 c3 92 16 bb 22 cd c9 3c 48 0b fd bc a9 b5 6f bd
       -0.002297566 0.024633948 -0.030889168 -0.058522854
0003c0 30 75 4e 3b 74 73 5a 3d d4 4a ae bc d5 bb 88 bc
       0.0031502955 0.05333276 -0.021275915 -0.016691128
0003d0 90 c1 05 bd e3 85 66 3d 35 e2 52 3d 33 bc 93 3c
       -0.0326553 0.056280028 0.05148526 0.018034076
0003e0 bb 5c 9a bc 7d 03 f4 3c 8f 4f b2 bb 57 cb 0c 3d
       -0.018843045 0.02978682 -0.005441613 0.034373607
0003f0 70 52 0f 3d 90 58 22 bc 19 d3 40 3d 88 00 7f 3d
       0.034990728 -0.00990881 0.04707632 0.062256366

conv2.bias f4 [32]
000000 44 d0 5e bb 3c ef f6 bb bd 18 20 3d 98 1d ad 3c
       -0.0033998648 -0.007535843 0.039086092 0.021132275
000010 18 43 02 bd eb b5 d2 bc 35 96 10 bd 91 0f ff 3c
       -0.031802267 -0.02572151 -0.0352995 0.031135352
000020 6f 38 e6 3c 1a 38 0f 3d f8 30 9d bc 28 0a 40 bc
       0.028103082 0.034965612 -0.01918839 -0.011721171
000030 75 e5 fe 3a fb 4b 01 bd a5 fb 7b 3c f6 09 5f 3b
       0.0019447046 -0.0315666 0.015379821 0.0034033037
000040 f3 30 e5 3c d0 06 ec bc 73 11 45 bd 09 ee 26 3d
       0.027977442 -0.028811842 -0.048112344 0.04075435
000050 0f 5f 4a 3c 22 5e 19 bd 2d 46 62 3b 38 6a 7e bb
       0.012351765 -0.037443288 0.0034526691 -0.0038820636
000060 59 d2 fa 3c 08 02 9a bb 69 1f 36 3d 17 4f f5 3c
       0.03061788 -0.004699949 0.04446355 0.02994494
000070 e7 7e a3 bc 4a a5 64 bd bb 76 07 bc e1 2c 0f bd
       -0.019957973 -0.055821694 -0.008268054 -0.03495491

block1.conv1.weight f4 [16, 16, 3, 3]
000000 6e b2 b7 3c 8e cf 4b 3d 08 51 a4 bc 1b b0 19 bc
       0.02242395 0.049758486 -0.02005817 -0.009380366
000010 9b 4c 2d bd 28 00 7b 3c a4 52 22 ba fc 7c 9a 3d
       -0.042309385 0.0153198615 -0.0006192124 0.0754337
000020 47 12 fa bc 7c 6d b8 3c 25 4a 2e bd 3d 19 82 3d
       -0.030526293 0.022513144 -0.04255118 0.0635247
000030 e1 82 9a bd 60 19 ff bc 82 af b3 bd 1a 86 90 3d
       -0.075444944 -0.03114003 -0.0877371 0.07056828
000040 8d ca 86 3d f3 0b 94 3d ff f1 04 3d 55 a6 92 3d
       0.06581602 0.07228842 0.032457348 0.071606316
000050 3f 16 a4 bd 88 28 18 3d 36 4b 74 bd 94 dd 97 bd
       -0.080120556 0.03714803 -0.05964204 -0.074153095
000060 7e a6 bd bb ba ac 8a bc f3 d0 87 bc 5f 20 74 bd
       -0.0057876697 -0.016928066 -0.016579127 -0.059601184
000070 c2 6c 2b 3d 8a 5d c5 bc b9 67 01 3d a6 4e 3c 3c
       0.041851766 -0.024092454 0.03159306 0.011493361
000080 6f 0c 5b 3d 11 02 7d bd a8 51 a2 3c 87 8e 85 bd
       0.053478654 -0.06176955 0.019814327 -0.065213256
000090 83 95 98 3d 23 4d 00 b9 9f 27 7c 3c 2d b9 c1 3d
       0.07450392 -0.00012235767 0.015390306 0.094591476
0000a0 68 94 92 3d d7 b7 fa bc a9 0f a8 bc 81 e3 4e bd
       0.071572125 -0.03060524 -0.02051528 -0.050509933
0000b0 87 1b 18 3d 4c 05 98 bd 5f 8a 93 3d 9f e7 97 bd
       0.037135627 -0.07422885 0.072041266 -0.07417225
0000c0 7e 48 f2 bc 60 45 48 bd 02 43 42 3d 70 91 c6 3d
       -0.029575583 -0.048894286 0.047427185 0.09695709
0000d0 8b cc 9a 3d 05 1d 0b bd 9e 73 89 3d d8 79 69 3d
       0.07558545 -0.033963222 0.06711505 0.057000965
0000e0 1a 8c 19 bd be 09 cd 3c 37 35 6d bd f9 f6 0c 3d
       -0.037487127 0.02502906 -0.057912078 0.03441522
0000f0 26 dc 4c 3c 24 1b 8a 3c a8 a8 4a 3d 15 74 8f bd
       0.012503659 0.016858645 0.04947725 -0.07004563
000100 75 eb 4d 3d 76 ec 35 3d 1f 35 76 bd 68 af 94 bc
       0.050273377 0.04441496 -0.060109254 -0.018150046
000110 c1 8b 78 bc 14 e7 98 3d c6 86 0a 3d f1 22 60 bd
       -0.015170039 0.0746595 0.033819936 -0.054720823
000120 f2 8b ee bc b1 aa 83 bc 92 49 00 bd 4c 46 76 bd
       -0.029119466 -0.016072603 -0.031320162 -0.060125634
000130 38 f6 9e bc c8 65 36 3d 9a b1 ab bb cc d4 92 bd
       -0.019404516 0.04453066 -0.0052396776 -0.07169494
000140 f5 0a 82 bd 24 e3 7e bd 89 55 28 bd 82 c1 79 3d
       -0.06349746 -0.062228337 -0.041097198 0.06097556
000150 05 dc 55 3d fd d7 1a bd 3e 59 25 3d 3d 15 aa 3d
       0.05221178 -0.03780364 0.04036831 0.08304832
000160 c3 6b 36 bd d7 4a 75 bc fb 80 77 3c e7 2b cc 3d
       -0.044536363 -0.0149714565 0.015106435 0.09969311
000170 8c 74 90 3c 53 b7 e1 3d b0 6b c9 3c 8c a5 76 3d
       0.017633699 0.110212944 0.024587482 0.06021647
000180 59 c9 cd 3d cd 09 17 3d 67 d2 74 bd 66 19 72 3c
       0.1004817 0.03687458 -0.059770968 0.014776563
000190 ae 98 5c bd d5 9b 93 3d bf 48 27 3d 24 c7 e4 3c
       -0.053856544 0.07207457 0.04084086 0.027926989
0001a0 37 1b b4 3b 70 fd 85 bd 4b 47 9a bd f7 a9 33 3c
       0.0054964083 -0.0654248 -0.07533129 0.010965816
0001b0 55 cf 97 bb 0b 79 2d bc 3b 34 8b bd 6b 0b 1b 3d
       -0.00463287 -0.010587941 -0.067970715 0.037852686
0001c0 43 c2 36 bd 8c 65 bd 3c d3 4c 5f bd bc c5 ea bc
       -0.044618856 0.02311971 -0.054516625 -0.02865874
0001d0 95 d1 83 bd a2 c2 64 bd 2c 17 89 bc ee 57 80 bc
       -0.06436459 -0.05584968 -0.016734682 -0.015666928
0001e0 c4 3a ac 3d 53 60 28 3c 7d 26 0d b9 f3 5d d5 3c
       0.08409646 0.010276872 -0.00013461146 0.026045775
0001f0 f3 54 5a 3b 0a c1 e7 3c 14 11 d1 3c 9c 34 ae bd
       0.0033314794 0.02829029 0.025520839 -0.08506128
000200 66 4c e4 bc 7a 7e 2b 3d 38 d7 39 3d b6 38 a5 3d
       -0.02786846 0.041868664 0.045371264 0.080674574
000210 76 01 80 bd 5d c0 05 bd fe 8a 16 bd 32 cf b0 3b
       -0.06250279 -0.032654155 -0.036753647 0.0053957934
000220 37 67 e5 ba 96 80 d3 bc b0 d8 a7 3d ec 0c 09 3d
       -0.0017502074 -0.02581815 0.08195627 0.03345959
000230 33 a3 8d bd 47 c8 b0 bd f0 e4 83 bc 5c 5a 53 bd
       -0.069158934 -0.0863195 -0.016100377 -0.051599845
000240 ac 9a 99 bd 62 16 b2 ba 4c 14 1e bc 30 d3 e6 3d
       -0.075002044 -0.0013586993 -0.009648394 0.112707496
000250 bd d5 7f bd 03 5a b2 bd eb 1e 9e 3d 37 82 a6 3d
       -0.062459696 -0.087085746 0.07720741 0.08130305
000260 2e 6e 92 bc cd b9 cb 3c 95 0a a0 3c 4d a2 7b bd
       -0.017874803 0.02486887 0.019536296 -0.06143408
000270 b5 4c 09 3b 5c 67 65 3d 37 67 69 bb 78 ab e7 3c
       0.0020950262 0.056006774 -0.00356145 0.028280005
000280 44 1d e3 3c de c1 f5 3b e3 71 45 3d 85 23 40 bc
       0.027723916 0.0074999174 0.048204314 -0.0117272185
000290 ee a0 91 bc 0a 65 2b 3d 65 b4 65 3d e1 d4 a1 3d
       -0.017776933 0.041844405 0.05608024 0.079019316
0002a0 57 74 d2 3d 90 3f b5 3d 37 33 a8 bc 0f 6c 12 3c
       0.10276096 0.08850014 -0.020532234 0.008936896
0002b0 9a af 8b bd 24 d7 ab 3d 57 39 9a 3c 4f 81 c4 3c
       -0.06820603 0.08390644 0.01882617 0.02398744
0002c0 4e 17 4a bc ed 7d 27 3d 5d 28 1e 3d 36 da ae 3d
       -0.012334658 0.040891577 0.038612712 0.08537714
0002d0 76 11 33 3d c9 4a 93 3d b3 0f 02 3d 53 16 e1 bc
       0.043717824 0.071919985 0.031753253 -0.027476465
0002e0 83 48 0e 3d fd 0f c9 3c 9d 4d 10 bc 8d 98 5a 3d
       0.03473712 0.024543757 -0.008807567 0.05336814
0002f0 8c 3a 83 3d 96 65 88 3d 60 e6 bf 3c 7d 08 0c 3d
       0.06407651 0.06660001 0.023425281 0.034187783
000300 e4 7f 86 3d 74 48 17 3d 59 db 8d 3c b6 9f 8a 3d
       0.06567362 0.03693433 0.017316507 0.06768744
000310 c0 ba cd 3d be 3f 61 bd fe ad bb bd 18 d6 45 3d
       0.10045385 -0.05499243 -0.09164046 0.04829988
000320 c4 e8 d0 3c 50 95 bb bc c3 00 89 bd dd 7b 93 bc
       0.025501616 -0.022898346 -0.066895984 -0.018003399
000330 c3 78 80 bd d7 85 86 bd 11 2e 89 3c 9d 0f 37 3d
       -0.062730335 -0.06568497 0.016745599 0.044692624
000340 8c a7 b7 bc 94 26 aa bc 2e 08 29 bd 6b c6 35 bd
       -0.02241876 -0.020770349 -0.041267566 -0.04437868
000350 c0 8c 86 3c 69 81 cf 3d aa 91 49 bc 26 e0 aa 3c
       0.016424537 0.10132105 -0.012302795 0.020858835
000360 5e f4 a7 bd c2 74 8c bd d9 50 08 bd fa ad 99 3d
       -0.08200906 -0.06858207 -0.033280227 0.075038865
000370 2d f6 9e bc fc bb 27 3d 58 a0 64 bd af bb 0c 3d
       -0.019404495 0.04095076 -0.05581698 0.034358677
000380 64 21 ef 3c 0f 0f 43 3b 7f dc 3a 3d 9c 54 39 3a
       0.029190727 0.0029763614 0.045620438 0.0007069798
000390 38 ed 94 bd 11 61 7f bc 96 47 a0 bd 9a 57 89 bd
       -0.072718084 -0.015587107 -0.07826154 -0.06706162
0003a0 87 ce 1a bd 97 5d 90 3d 0b 85 93 3c 2f d4 96 bd
       -0.037794616 0.07049101 0.018007776 -0.073646896
0003b0 11 f2 d4 bc 45 61 8e bd 68 b2 60 3d 2e c6 bf 3d
       -0.025994333 -0.069521464 0.05485764 0.09363972
0003c0 60 11 9e 3b b6 8c cd 3c 79 8a 28 bd e7 58 65 bd
       0.0048238486 0.02509151 -0.041147683 -0.055992987
0003d0 50 86 7e 3d 50 c6 36 3d 8a a3 25 bd d8 ec 0a 3c
       0.06213981 0.04462272 -0.040439166 0.0084793195
0003e0 4e 4c 5e bc ea 67 c4 3d 69 9e 59 3d df 9a a0 3d
       -0.013567997 0.095901325 0.053129587 0.07842039
0003f0 e4 00 4b 3d 71 98 48 bd f8 c3 2e 3d 1f ca e2 3c
       0.049561396 -0.048973504 0.04266736 0.02768427

block1.conv1.bias f4 [16]
000000 a6 e4 83 bd 3e fd 80 3d 42 13 1d 3c 0f 15 a6 3d
       -0.064400956 0.06298302 0.009587111 0.08109485
000010 2a 23 5e bc 48 5f 30 3d 5c 0c 5d 3d 1e 76 a7 3d
       -0.013558188 0.043059617 0.053966865 0.08176826
000020 db 3d 74 3d 05 84 b7 3d a0 6f 84 3d 2a d9 b2 3a
       0.059629302 0.089607276 0.06466603 0.0013645042
000030 53 2d 2c bd 65 8e 98 3d 48 e7 f3 bc a9 b0 32 bc
       -0.042035412 0.074490346 -0.02977337 -0.010906377

block1.conv2.weight f4 [16, 16, 3, 3]
000000 d0 a8 86 3c 88 68 f3 bc c1 91 01 bc 23 10 ef 3b
       0.016437918 -0.02971293 -0.007908286 0.007295625
000010 e8 27 8a 3d 13 cb 97 3d 57 0d 73 3d e9 b8 0c bd
       0.06745893 0.0741178 0.059338894 -0.03435603
000020 d3 2e 22 bc 08 e1 82 bd 5f 00 c0 bc 2c 16 36 3c
       -0.009898859 -0.063905776 -0.023437677 0.011113685
000030 c9 b7 7f bd 37 80 b5 3c ca e7 53 3d b2 6b b0 bd
       -0.06243113 0.022155864 0.051734723 -0.08614291
000040 df d2 ce 3c b7 43 94 3d 65 54 37 bd 0b f3 65 3d
       0.025247036 0.07239478 -0.04475822 0.056139987
000050 57 e1 5e bd 02 46 8f bc f1 4f 90 bd 6c 00 8e 3d
       -0.05441412 -0.017489437 -0.070464976 0.06933674
000060 fa a1 0c 3d 2d c7 9e bd 5e dc 40 3d 16 75 6d 3d
       0.03433416 -0.077528335 0.04708516 0.05797299
000070 c9 23 69 bc 6b 9e 72 3d 68 58 25 bd 04 d5 0e 3e
       -0.014229723 0.05923311 -0.040367514 0.13948447
000080 b9 7b 00 3e 64 f6 7d 3d e6 3e 04 3c fa ef ef 3d
       0.12547196 0.062002555 0.008071637 0.11715694
000090 06 14 b6 bd 88 4d 3f bc bd f2 6a 3d 79 87 8c 3c
       -0.08890538 -0.0116762 0.0573604 0.017154442
0000a0 2f 27 34 3d 01 c9 c5 bc 05 2a 5f 3d b2 0d 8e bd
       0.04398268 -0.024143698 0.054483432 -0.06936206
0000b0 ed f1 8b bd 41 99 08 3d 1a eb 25 3b f7 2a 7c bd
       -0.06833253 0.03334928 0.0025317133 -0.061564412
0000c0 80 49 08 3b b3 52 a1 3c 4c 78 0c bd 5a 4c 03 bd
       0.0020795763 0.019692754 -0.03429441 -0.032055236
0000d0 20 b3 53 bd 6c 34 31 3d f6 d8 dd 3c 93 98 03 3d
       -0.0516845 0.043262884 0.027080994 0.032127928
0000e0 ff 90 c7 bc fb f0 9f 3d 23 49 1a bb a7 b6 12 3d
       -0.024361132 0.07809635 -0.0023542128 0.035818722
0000f0 9f 9d 47 bc 1e 42 81 bd 8b 5a 08 be 68 8f 70 3c
       -0.012183576 -0.06311439 -0.1331579 0.014682628
000100 3a 3e a3 3d fa c8 18 3d f4 8c da 3b 6c ce 5d 3c
       0.07970853 0.03730104 0.006669635 0.013537984
000110 40 b3 95 3c 25 94 87 3d ac 3b c0 3c 3c 04 cf 3c
       0.01827395 0.06620053 0.023465954 0.025270574
000120 9c cd 87 3c fb ea 53 bd 15 68 ac bc 37 79 b9 3d
       0.016577534 -0.051737767 -0.021045724 0.09056323
000130 07 2b d9 bc ee e9 67 3d 63 a6 92 bd 34 e4 d7 3c
       -0.026509775 0.056619577 -0.07160642 0.026353933
000140 0e c0 16 3d de bf 47 bd b4 1e cf bc bc 39 22 bd
       0.03680425 -0.048766963 -0.025283195 -0.03960584
000150 8c 9c 2e 3c e8 26 85 bc 4c 70 6b bd db 1d f3 3d
       0.010657441 -0.016253904 -0.05748014 0.11870929
000160 60 15 c8 3d 49 23 88 bd 46 30 85 bd d0 78 34 bd
       0.09769702 -0.06647355 -0.06503348 -0.04406053
000170 67 bc ba 3b 99 ac b5 3d b3 52 08 3d e4 0e a4 3d
       0.005698729 0.08870811 0.033281993 0.08010653
000180 ad 4c a6 bd a3 0a ea bc 94 62 26 3d 40 34 f7 bc
       -0.081200935 -0.028569525 0.040621355 -0.030176282
000190 6a 33 73 3d 8b 57 7d bd 2a 04 09 bd 4c 8b a1 bd
       0.059375204 -0.061851066 -0.033451237 -0.07887897
0001a0 f9 76 ab bd 0b 11 57 bd 63 31 7a 3d f9 7b bb bb
       -0.083723016 -0.052506488 0.061082255 -0.005721566
0001b0 0a 03 13 bd b6 1d 57 bd ea 31 5a bd d0 43 84 bd
       -0.03589157 -0.05251857 -0.053270258 -0.06458247
0001c0 35 d9 d5 3b 55 95 e2 bc 2e 11 11 bc eb 04 0f 3d
       0.0065261372 -0.027659098 -0.008854194 0.0349168
0001d0 af 73 64 3d 01 e5 6d bc fd 12 cc bc e0 85 e1 bb
       0.055774387 -0.014519931 -0.024911398 -0.006882414
0001e0 8c 44 76 bd 40 5a 9f bd ad fd 48 3d 9d 8c e4 bc
       -0.060123965 -0.07780886 0.04907005 -0.02789908
0001f0 55 e9 07 bd 5d dd 96 3d d5 5f 86 3d aa b7 d3 3c
       -0.033181507 0.073664404 0.06561247 0.025844414
000200 e7 d9 8f 3c d8 d3 91 3d e1 6e 5b 3d fa d9 cc 3d
       0.017559959 0.07120484 0.05357254 0.10002513
000210 fb d3 f3 3c e3 34 45 bd 37 30 46 3d b9 cb b5 3d
       0.029764166 -0.04814614 0.048385825 0.08876748
000220 54 f8 02 bd 54 8a a5 3d 2e be 5b 3d c9 16 8a bd
       -0.031975105 0.080830246 0.053648166 -0.06742627
000230 71 1b 3a 3d 05 af 4a 3d 9a 68 3c bd 76 d5 71 bc
       0.045436326 0.049483318 -0.045998193 -0.014760366
000240 bf c9 ac 3d 1f 38 2c 3d 00 0b 2b bd 65 62 e0 bc
       0.084369175 0.04204571 -0.041758537 -0.027390668
000250 f5 e1 d3 bc 95 83 dd 3b be 0a b0 3d 4d db 42 3d
       -0.02586458 0.0067600706 0.08595799 0.047572423
000260 2d a2 5e 3d 26 2c 8b bd 0b 62 f5 bb da aa 1e 3d
       0.05435388 -0.0679553 -0.0074884943 0.038737155
000270 fc 3f 52 3c 07 7d bc 3c 07 c6 ca 3c fd 4a f1 bb
       0.012832638 0.023008836 0.02475263 -0.0073636756
000280 06 a6 7b 3b 68 3d 5c 3d 89 fa db 3c 88 e3 0b bd
       0.0038398518 0.0537695 0.026852863 -0.034152538
000290 91 c6 13 3d b5 c3 a8 bd 45 f9 bc bc 9b dc 02 bc
       0.03607804 -0.08240453 -0.02306808 -0.007987167
0002a0 3d d1 a4 bd 67 a3 2f bd 39 44 c5 3c 1f e2 57 bd
       -0.080477215 -0.042880442 0.024080383 -0.05270588
0002b0 35 9b 6b bd ee 6f e1 3b ae ed 8d bc e5 cd 9c 3c
       -0.057521064 0.006879798 -0.017325249 0.019141147
0002c0 3d a9 a3 3d 7d df 11 bd 27 ad 9b bc c0 61 b1 bc
       0.07991264 -0.035613526 -0.019003464 -0.021653056
0002d0 ca b8 88 3d 23 48 54 bb f5 9a 8f bd 38 eb f4 3b
       0.06675871 -0.003239163 -0.070119776 0.0074743293
0002e0 7c 31 83 bd 49 34 58 bd d8 ca 9d 3d 9c a2 79 3c
       -0.06405923 -0.052784238 0.07704705 0.015236523
0002f0 86 00 5c 3c a1 79 9f 3d ac 85 f6 3b f2 b4 6c bd
       0.013427859 0.07786871 0.007523259 -0.05778975
000300 4d 4f 97 3d 3b 1d db bc 76 69 47 3d ff 2a 96 bc
       0.07388172 -0.026747337 0.04868456 -0.018331049
000310 bf c4 81 bc 32 71 49 bd af 64 86 bd 88 ad b7 3c
       -0.015840886 -0.049180217 -0.065621726 0.022421613
000320 ea d0 ce 3c 0b 12 c1 3c 4d b2 9a 3c ef 6d e8 bb
       0.025246102 0.023568174 0.018883849 -0.007093183
000330 fa ef 48 3d 6e db f1 3c c2 67 77 bd a2 09 ab bd
       0.049056984 0.029523578 -0.060401686 -0.08351447
000340 53 a9 86 bd b5 74 63 3c 5a 40 12 3d 9b 7a 68 bd
       -0.06575265 0.013882806 0.0357059 -0.05675755
000350 33 c7 9c bc fa 21 af 3d 68 2c 58 bd 21 78 ae bc
       -0.019137954 0.085514024 -0.052776724 -0.021297516
000360 b3 81 3e 3d 77 f1 c5 3a f1 37 8f 3d 8b 65 84 3d
       0.04651041 0.0015101869 0.06993092 0.0646468
000370 22 52 90 bd e0 c3 4e 3c 31 a4 fa bc 93 a3 83 bd
       -0.070469156 0.012619942 -0.03059587 -0.06427684
000380 08 cb f6 3c bb 19 ce 3c 54 78 a1 3d 23 48 37 bd
       0.03012611 0.025158754 0.07884279 -0.04474653
000390 f4 55 30 3d bd 38 71 bd db ef 5d 3d d7 9f 80 3d
       0.04305072 -0.058892 0.054183822 0.06280487
0003a0 2d b6 18 3d f7 40 6a bd 19 a1 f2 bc cf 55 60 bc
       0.03728311 -0.05719086 -0.029617833 -0.013692333
0003b0 e0 9f 7d 3d 95 fb d0 bd 38 b0 66 bd 75 d2 7a 3a
       0.061920047 -0.102042355 -0.0563204 0.00095681037
0003c0 c5 a0 a2 3c 5d f3 c1 bb 81 44 16 3d 05 80 13 3d
       0.019852052 -0.0059189037 0.036686424 0.03601076
0003d0 5c 56 90 3d 27 78 7d 3d 21 cd bd bc ee e7 68 bd
       0.07047722 0.061882164 -0.023169102 -0.05686181
0003e0 94 7f cc bc da ee f0 bb e3 34 c0 bd c7 bf ee bc
       -0.024963178 -0.007352692 -0.09385087 -0.029144181
0003f0 2d a5 87 3d 1b 0b 41 3d ce d4 08 bd 42 7b a7 bd
       0.06623302 0.04712973 -0.03340607 -0.081778064

block1.conv2.bias f4 [16]
000000 1c ad da 3d dc 1c a7 bd 59 6b 63 3d fb ae fd ba
       0.10677549 -0.08159801 0.055522297 -0.0019354516
000010 a6 b9 3e bd 8e dd 7b bd 10 a5 7b 39 14 86 3a 3d
       -0.046563767 -0.061490588 0.00023998716 0.045538023
000020 c5 28 e5 bc 42 43 9f 3d 5e 82 1f bd 9a 18 84 bd
       -0.027973542 0.077765 -0.038942687 -0.06450005
000030 92 2e 56 bd 68 1c a1 bc ff 62 2f 3d a3 b9 64 3d
       -0.052290507 -0.019666865 0.04281902 0.0558411

block2.conv1.weight f4 [32, 32, 3, 3]
000000 43 41 38 bd b0 ec 37 3d 9a 9e 0a 3c b0 2d 35 bd
       -0.044984113 0.044903457 0.008460665 -0.044233024
000010 85 bd e4 bc c0 24 2c bc ed 71 9c bc 42 90 29 bc
       -0.027922401 -0.010506809 -0.019097293 -0.010349335
000020 68 0c 4c bd 74 66 5a 3d 8a 40 a9 3c a8 44 82 bc
       -0.04981652 0.053320363 0.020660657 -0.015901878
000030 e5 f3 d2 bc 64 71 b4 3c da be 2a bd bb 61 a7 3c
       -0.025751064 0.022026725 -0.041685916 0.020432344
000040 36 59 03 3b 39 00 1b bc 19 db 08 bc 90 32 4d 3d
       0.0020042188 -0.009460502 -0.008353018 0.05009705
000050 4a 15 70 3d 0a e5 5c bb 6d 9f 71 3d ef f7 93 3c
       0.058614053 -0.0033705854 0.05898993 0.01806256
000060 5c 0f 18 bb 05 00 66 3d bc ee e4 3b 80 92 7a 3d
       -0.0023202514 0.056152362 0.006986467 0.06117487
000070 1b e4 17 3d 11 63 b7 bc 39 57 07 bd 68 8a 28 3c
       0.037082773 -0.022386106 -0.033042166 0.010286905
000080 c4 e3 cf bc bc 49 88 3d 79 e7 0d 3d 60 2b 30 bd
       -0.025377162 0.06654689 0.034644578 -0.043010116
000090 ce 39 a9 3c c8 d0 91 3d ff 3b da bc 77 ad 59 bb
       0.020657446 0.071199 -0.026639936 -0.0033214965
0000a0 59 10 13 3c c7 6f ba bb 54 c7 e7 bc 09 37 0f bd
       0.008976066 -0.0056895944 -0.02829329 -0.034964595
0000b0 0f 9f 1d bb 06 5b 57 bd 04 76 ae bc 4d a2 88 3c
       -0.0024051105 -0.05257704 -0.021296509 0.016678954
0000c0 d5 76 99 bc 36 51 d7 bc 59 06 84 3c 9a 3f 0d 3d
       -0.018733421 -0.026283842 0.016116308 0.034484483
0000d0 dd c6 d5 3c 5e e3 a1 3b c8 83 26 bd 3d 0e 4f bb
       0.026095802 0.0049404344 -0.04065302 -0.003159418
0000e0 7c 66 ee 3c 86 3f ce ba 7a aa e2 bc 8e 3f aa bc
       0.029101603 -0.0015735484 -0.02766918 -0.020782258
0000f0 79 61 7f 3d d0 68 50 3d 9b 0a 9b 3c 5b b9 3e 3d
       0.062348817 0.050881207 0.018925956 0.046563487
000100 20 6d 40 3d 28 67 2f 3d 51 68 41 3d c8 3a 38 3d
       0.04697907 0.042822987 0.047218625 0.044977933
000110 4a 97 90 bd fd f4 28 3b 0e bd 27 bd ac 0f 09 bd
       -0.07060106 0.002578079 -0.04095178 -0.03346221
000120 4a cb d7 bc c6 01 ce bc d8 33 43 3d 1d 82 b7 bc
       -0.026342053 -0.02514733 0.047656864 -0.02240091
000130 e2 48 6a bd 7a 3f 6f 3c fa 57 fb 3b 5e dd 0b 3d
       -0.057198413 0.014602536 0.0076703997 0.03414666
000140 7f 4f d2 bc 67 88 3b 3d 82 0c fa bc 04 9e 48 bc
       -0.025672672 0.04578438 -0.030523542 -0.012244705
000150 6f 7a f9 bc ab 30 80 ba 67 56 38 3d b5 ef 48 3d
       -0.030453889 -0.0009780129 0.045004275 0.049056727
000160 38 29 37 3d bc f3 cf 3c d2 87 58 3d 3d 6e 33 bd
       0.044717044 0.025384776 0.052863903 -0.043806303
000170 21 ac 2f bd 19 1f 8e 3d 43 10 8d 3c 57 7c 00 3d
       -0.042888764 0.06939525 0.017219668 0.03136858
000180 2f e3 28 bb e1 dc 15 bd cd c2 a0 bc 4c 53 67 3d
       -0.0025770178 -0.0365876 -0.019624138 0.056475922
000190 91 79 65 bc c8 a6 7b bd 41 7e b4 bc 95 4d 1f bd
       -0.0140060345 -0.061438352 -0.022032859 -0.038892347
0001a0 c6 c2 a5 3c 80 fb e7 bb 0b 38 1f bc 5d 2d 75 3d
       0.020234477 -0.0070795417 -0.0097179515 0.059857715
0001b0 f8 f4 85 bd 14 05 3c bc 5f d6 5c 3c 61 cd 0c 3d
       -0.06540865 -0.01147582 0.013478844 0.034375552
0001c0 f5 7d cd bc d7 ae 11 bd ec 27 38 3d 92 6e 82 3d
       -0.025084475 -0.03556713 0.044959947 0.06368746
0001d0 0b a6 82 3d de d3 a2 bc 51 3f 77 bd 52 2e 73 3d
       0.063793264 -0.019876417 -0.060363118 0.059370346
0001e0 3e 6b 8d bc e2 98 87 bc a7 e8 26 bb 1c 4d 8a bc
       -0.017263051 -0.016552392 -0.0025468261 -0.016882472
0001f0 ce 82 cb bc e6 92 3a 3d e9 51 72 3d 3d ef 12 3c
       -0.024842646 0.04555025 0.059160147 0.008968172
000200 71 60 28 bd 9f d3 4b bd 25 d0 d8 bb 1e 07 8f 3c
       -0.0411076 -0.049762364 -0.0066166096 0.017459448
000210 49 5e 5b 3c c6 96 45 bd 45 15 00 bd 56 b6 1f 3d
       0.013389179 -0.048239492 -0.031270284 0.03899225
000220 e7 39 80 3c 0c 04 3e 3d c1 70 97 bc 69 85 dd 3b
       0.01565261 0.04639058 -0.018486382 0.0067602885
000230 1b 75 51 bd c4 8b c4 3c 34 d5 a1 3d b5 ea 0f bd
       -0.05113707 0.023992427 0.079019934 -0.035135943
000240 6e 62 a2 bc 78 b5 0a 3d e0 59 3e bd ef 73 34 3c
       -0.019822326 0.03386447 -0.04647243 0.011013969
000250 4e f7 2e bd 63 55 32 bd 97 ca 27 3c c1 c4 3c bb
       -0.042716317 -0.043538462 0.010241172 -0.0028803798
000260 45 e5 3d 3c 31 d7 23 3d 62 b1 85 3d 27 01 b3 bc
       0.011590307 0.040000144 0.06527974 -0.021851135
000270 24 07 4c 3d b5 e4 41 3d e9 3c 17 bd 8e 52 4d bd
       0.049811497 0.047337253 -0.036923323 -0.05012756
000280 97 52 8e bb 98 2f 44 3b 1e 7e 94 3d 05 39 71 3c
       -0.0043433416 0.0029935595 0.072506174 0.014723067
000290 25 ef 7d bd c9 d9 39 bd ce 6c 03 bc 58 10 28 3d
       -0.061995644 -0.04537371 -0.0080215465 0.04103121
0002a0 06 d9 12 bd 13 1b cb bb eb e1 3f bd 1e 54 81 3d
       -0.0358515 -0.006198296 -0.04684631 0.06314872
0002b0 28 5d 7e 3d 03 93 9a bc ce 24 43 bb 76 76 e6 bc
       0.06210056 -0.018868929 -0.0029776576 -0.028132658
0002c0 d7 49 0e 3c 32 1d 92 3c 98 25 82 3d 84 94 61 bc
       0.008684597 0.017836187 0.06354827 -0.013768319
0002d0 ba 90 a3 bd f7 aa fb bc 69 82 b1 bb b0 9c a3 3c
       -0.07986589 -0.03072117 -0.0054171574 0.019972175
0002e0 f1 4b 64 3d eb d2 c1 3b 2c a9 d2 bb d3 1b 72 3d
       0.055736486 0.005915036 -0.0064288583 0.059108566
0002f0 bf d1 36 3d 5f 98 78 bd 9d 71 c1 3b a4 3e 8e 3d
       0.044633623 -0.060692187 0.0059034363 0.069455415
000300 f5 35 4c 3d e4 86 e4 bc 25 62 7d 3c 4a ae 50 3d
       0.049856145 -0.027896352 0.015465294 0.050947465
000310 c5 07 6e bc 44 70 02 bc 35 c0 8b bc 38 1e c4 bc
       -0.01452822 -0.0079613365 -0.017059425 -0.02394019
000320 e3 51 98 ba c4 b6 21 3d b1 d8 59 bd d5 2f 34 3d
       -0.0011621084 0.03948094 -0.05318517 0.04399093
000330 c6 f1 fe bb 5f f0 4f 3c 57 7e 45 3c 4b 8c 32 bd
       -0.0077802865 0.012691586 0.012054048 -0.043590825
000340 31 eb 30 3c 88 f3 1e bd 13 21 1e 3d d7 93 ec 3c
       0.0107982615 -0.03880647 0.03860576 0.02887909
000350 dd 03 eb 3c 20 e7 15 bd a1 7f db bb e3 69 67 bd
       0.028688366 -0.03659737 -0.006698564 -0.056497466
000360 05 9b 53 3c 07 13 7a 3d 65 fe 43 3c 18 53 10 bd
       0.0129153775 0.061053302 0.011962508 -0.035235494
000370 7a e2 4b bd a5 4f 6d 3d 8b 13 11 bd e6 6f 40 3c
       -0.04977653 0.057937283 -0.03541903 0.011745429
000380 a0 26 75 3d 8b bd 87 3d f4 b9 d8 ba b7 ef a2 bc
       0.05985129 0.06627949 -0.001653491 -0.019889696
000390 13 32 82 bd 57 1c 01 bd 74 f7 05 bd 2f bd de 3a
       -0.06357207 -0.031521168 -0.032706693 0.0016993637
0003a0 11 4a 1e bd e0 fc 59 3d 7d 21 17 bb a1 ab 17 3c
       -0.038644854 0.053219676 -0.0023060732 0.009257228
0003b0 0f ab 87 bd 42 cb 85 bc ae c2 f2 3c 6e cb 40 3d
       -0.06624424 -0.016332272 0.029633846 0.047069006
0003c0 67 c6 ff 3c 19 f6 3b 3d af eb 20 3d 21 45 20 3d
       0.031222535 0.045888994 0.039287265 0.039128426
0003d0 65 e0 5a bd 86 59 2f bd 00 01 a2 3d be 30 1b bd
       -0.053436656 -0.042809986 0.07910347 -0.03788828
0003e0 49 3d e1 bb c4 02 a3 3d 9e 4f c8 3c 0f 3b 19 3a
       -0.006873761 0.07959512 0.024452027 0.0005845287
0003f0 80 60 4c 3d 4e 0f b7 3c 43 da 22 bc 0c 2d 21 bd
       0.049896717 0.022346165 -0.009939733 -0.0393496

block2.conv1.bias f4 [32]
000000 1f 2a 2a bd 10 ab 9d bc ea 18 aa bc d2 9a 80 3d
       -0.041544076 -0.019246608 -0.020763833 0.0627953
000010 02 2e 06 bd bf 51 3e bd b3 3c 70 bd 46 33 16 3d
       -0.03275872 -0.046464678 -0.058651637 0.036669992
000020 3a 15 ee 3c 93 a0 e4 3b db ba 5d 3d c2 99 2f bd
       0.029062856 0.0069771498 0.054133277 -0.042871244
000030 b7 57 10 3d 0f 50 3b 3d ae 09 c2 3c 2b 08 7f bc
       0.0352399 0.045730647 0.023686256 -0.015565912
000040 ed 71 3e 3c ea 7a cb 3c 93 38 d8 3c 33 e9 b7 3c
       0.011623842 0.024838883 0.026394164 0.022450065
000050 ad 0b 42 bd b0 5c 12 3d 6c 92 44 bd 17 69 49 3d
       -0.047374416 0.035732925 -0.0479912 0.049172487
000060 e9 db c2 3c 16 0a 6d bd c0 9b 4e 3d 81 31 34 bb
       0.023786502 -0.057870947 0.050441504 -0.0027495327
000070 08 6e 60 bd e8 b9 83 3c 6b 1d 97 bc 5c 66 cf bc
       -0.054792434 0.016079858 -0.018446645 -0.025317363

block2.conv2.weight f4 [32, 32, 3, 3]
000000 fd e5 c0 bc 0d f1 9f 3c d4 f5 77 3c 4a e2 df 3c
       -0.023547167 0.019524122 0.015134294 0.027329583
000010 ad 87 30 3d 50 c8 83 3b 92 30 5b 3d 7a 32 57 3c
       0.04309814 0.004021682 0.053513117 0.013134593
000020 d7 94 17 3d cd 12 e9 bc 9a 29 35 bd c9 07 a9 bc
       0.03700718 -0.028451348 -0.044229127 -0.020633595
000030 3a 55 b1 3c df e1 2d bd f5 fb b7 bc 18 49 40 bd
       0.021647085 -0.042451736 -0.02245901 -0.046944708
000040 16 f1 0a bd ee 48 29 3c c5 ba 4f 3b 85 7c 88 bc
       -0.033921324 0.010332329 0.0031697017 -0.016660938
000050 56 f5 f9 3c d3 30 14 3d 02 7e b5 3a fc 07 95 3c
       0.030512493 0.036179375 0.0013846757 0.018192284
000060 34 72 29 3d 6d de 03 bd 05 80 53 3d 98 69 5e 3d
       0.04136868 -0.032194544 0.05163576 0.05429992
000070 fd a5 25 3d b8 0f 73 3c 42 77 69 bd 12 08 06 38
       0.040441502 0.014835291 -0.0569985 3.1955606e-05
000080 89 e0 12 bd 4b 81 66 bd 5c 7e 74 3d 2f 99 fc 3c
       -0.035858665 -0.056275647 0.05969082 0.030834762
000090 e1 69 8c 3c 16 13 a5 bb cd f2 d9 3c 3b 1a fa 3c
       0.01714033 -0.0050376756 0.026605034 0.030530086
0000a0 27 03 86 bc 2c fc 78 bb 4f fc 15 bd 71 6f dd bc
       -0.016358925 -0.0037992103 -0.036617573 -0.027030678
0000b0 c1 58 06 3d 01 41 48 bd eb b2 ea bb 01 53 09 bc
       0.032799486 -0.048890118 -0.007162442 -0.008381606
0000c0 f5 28 69 3d 5e 8c 39 3d 8f 90 0b bd aa 67 19 bd
       0.056923825 0.04529988 -0.03407341 -0.037452377
0000d0 16 c8 1f bc 45 f7 42 bc fc 41 62 bd 4e 5d 44 bc
       -0.009752294 -0.011899774 -0.05523871 -0.011985136
0000e0 1a d4 6e 3d dc 05 74 bd 6d f5 71 3c ad 41 ff ba
       0.058307745 -0.0595759 0.014767987 -0.0019474529
0000f0 71 6c 21 3d f1 02 7f 3c d9 8f 2f 3d 0d a8 2b bb
       0.03941006 0.015564666 0.042861793 -0.0026192695
000100 7c 76 cf 3c 6a 63 53 3d 8d 77 2e 3c b8 18 1a bd
       0.025325052 0.05160848 0.01064862 -0.03762123
000110 7a 60 3c bb bf ea f4 bb 55 bf 3d 3c e6 82 1f 3d
       -0.0028744028 -0.007474273 0.011581262 0.038943194
000120 c4 61 0b 3d f9 8c fd 3c 3a 40 34 bd 61 05 5d 3b
       0.034028783 0.03095101 -0.044006564 0.003372513
000130 6e fa 10 bd d0 98 1a bd 13 d4 b8 3c 71 53 22 3d
       -0.03539508 -0.03774339 0.022562062 0.039630357
000140 73 b2 62 3d 55 a7 61 bd b9 bd ac bc 8f b1 87 3c
       0.055345964 -0.05509122 -0.02108656 0.016564159
000150 16 2d 33 bd 70 02 5a 3d bb 26 1e bb 62 04 ea bc
       -0.04374417 0.05322498 -0.0024131972 -0.028566543
000160 0f 5a 33 bd 2c 4a 8e 3d 8e 73 0d 3c 8f e7 92 bd
       -0.04378706 0.06947741 0.008633507 -0.071730725
000170 c0 9e 06 bc 53 25 26 3d b8 24 56 bd d0 bf 53 3d
       -0.00821656 0.04056294 -0.05228111 0.0516966
000180 e7 f7 61 3d c3 b2 28 3d 6d 05 48 bd 3a 0e d9 bc
       0.05516806 0.041186105 -0.0488333 -0.026496042
000190 f3 47 52 3d 26 9f 39 bd 99 df 83 bd da 18 03 3d
       0.051338147 -0.04531779 -0.06439132 0.032006122
0001a0 8a 9f 7c bd 3b 2e f1 bc 15 c5 19 bd 17 9c 80 3b
       -0.061675586 -0.02944099 -0.037541468 0.0039248574
0001b0 09 a1 52 bd 2f 37 01 bc bc 4a 71 3d 62 da 4e 3c
       -0.051423106 -0.007886692 0.058909163 0.012625309
0001c0 fa 09 1c 3d 35 ae 37 3d b3 d8 26 bc 4d 7e 18 bd
       0.038095452 0.04484387 -0.010183501 -0.037229825
0001d0 63 27 33 3d 32 fb 3d bb 54 51 26 bd f3 44 6c bd
       0.043738734 -0.0028988835 -0.040604904 -0.057682943
0001e0 ee d4 b1 bc 5b ff 5f 3d 1f 99 29 3d 9e d8 28 3d
       -0.021707978 0.054686885 0.041405793 0.041222207
0001f0 ad c4 31 bd 76 1d 2f 3d a8 c0 52 3d 6b 03 00 3d
       -0.043400455 0.042752706 0.051453263 0.03125326
000200 0e fa 28 bd 6a e1 05 bd 47 6f 30 3d 94 54 31 3d
       -0.041254096 -0.032685675 0.043074872 0.04329355
000210 61 e3 65 bc 57 9e 7d 3c 98 86 7d 3d c0 ce 43 bd
       -0.014031262 0.015479646 0.061895937 -0.047804594
000220 ca 2a 5a 3c 2c 77 26 3d 9c 79 8c 3b c7 4a 25 39
       0.013315866 0.040640995 0.004286958 0.00015763483
000230 b2 29 c4 3c 4d 09 be bc 17 20 a3 3c 85 ea 80 3d
       0.023945663 -0.023197794 0.019912763 0.06294731
000240 c5 0f 55 bd 53 94 f2 bc a3 6b 36 bd c2 58 60 bc
       -0.052016992 -0.029611742 -0.044536244 -0.0136930365
000250 df bd ca 3a a5 58 cd b7 9d de 1d bc ae 41 3d bd
       0.0015467963 -2.4479183e-05 -0.009635595 -0.046205215
000260 e8 7c 6d bc 06 58 63 bd 2d d3 27 3a 1b 1b 35 3d
       -0.014495112 -0.055503868 0.0006402012 0.044215303
000270 19 4a 67 bd 1e e6 1d bd 6a 64 49 bc 72 89 4a 3d
       -0.05646715 -0.038549535 -0.012292007 0.049447484
000280 13 51 22 bd 68 38 f4 3c 44 c6 36 bc 8c 10 5a 3c
       -0.0396281 0.029812053 -0.011155669 0.013309609
000290 85 a3 99 3c bb c1 89 bd 35 5d 1b ba ba a1 19 bd
       0.01875473 -0.06726404 -0.00059266697 -0.03750775
0002a0 c6 83 53 bc 8b ee c0 3c 13 6c 7b 3d 9b 98 ab 3c
       -0.012909835 0.023551246 0.061382364 0.020946791
0002b0 a2 6b bb bc f2 f8 01 3d eb 63 a1 3b 18 68 c3 3c
       -0.022878472 0.031731553 0.004925241 0.023853347
0002c0 5b 05 1b 3d 30 af 8e bc 0d 00 10 3d 1b 80 f3 3c
       0.037846904 -0.01741752 0.0351563 0.029724171
0002d0 88 de 6f bb 2d b4 cc bc 1f 40 52 bc 5d 8b 1b bd
       -0.0036601145 -0.024988258 -0.0128326705 -0.037974704
0002e0 e5 87 52 bc 13 be 34 3d 16 ad 3a 3c 66 7c 62 bd
       -0.012849783 0.04412658 0.011393806 -0.055294417
0002f0 31 13 fc bb bb f1 22 bd ab 05 ad 3c 97 6c 5c 3d
       -0.0076927175 -0.039781313 0.021120867 0.053814497
000300 87 55 00 3d 14 e2 2c 3d 1e 74 0e 3d 76 9a 6a bd
       0.031331565 0.042207792 0.034778707 -0.05727621
000310 47 d3 20 3c 65 ff 52 3c 6a 02 a0 3c 1e 80 d7 3c
       0.009815997 0.012878274 0.019532401 0.026306208
000320 3a d9 11 bd cf 77 11 3c aa 8d 67 bd bb 1a 5b 3d
       -0.035607554 0.008878662 -0.056531586 0.05349229
000330 33 ba 21 bd c1 cf 75 bc 6f 19 f5 bb 7d 65 52 bd
       -0.039484214 -0.015003146 -0.0074798386 -0.051366318
000340 f2 26 04 bc 61 b7 c4 bc 27 66 e0 bb 9e 5e e9 bb
       -0.008065926 -0.024013223 -0.006848115 -0.007121875
000350 bd 39 95 bc 5c b6 b8 bc f7 c0 3b 3d 6d 9f 57 3d
       -0.018216008 -0.022547893 0.045838322 0.052642275
000360 73 ff 23 bd 1e 78 22 bc 72 7c 07 bd 59 ee 99 bb
       -0.040038537 -0.0099163335 -0.033077665 -0.0046976027
000370 7f 25 16 bd 32 b0 79 3c 3f f8 79 bd f9 86 6c bd
       -0.036656853 0.015239762 -0.06102776 -0.057745907
000380 51 76 4a bd 24 83 16 3d 74 de 43 3d 89 e0 6a 3c
       -0.04942924 0.03674616 0.04781957 0.01433576
000390 97 c7 0b bc d1 93 73 3b 6f a4 17 bd a4 b6 ae 3c
       -0.008531473 0.0037166963 -0.03702205 0.021327324
0003a0 fc 8b ff 3b c8 cf 25 bd 3c aa ef 3c c3 be d3 bc
       0.00779867 -0.04048136 0.029255979 -0.025847798
0003b0 3b d4 56 3d d4 b8 4b bc 5a 15 e5 bc 3f 45 1a bd
       0.052448492 -0.012434203 -0.027964283 -0.037663694
0003c0 25 a2 9c bc 2e 61 63 bc e5 45 30 bd e6 b5 3a bd
       -0.019120285 -0.01387815 -0.043035407 -0.045583628
0003d0 19 0f 58 3c 6c e2 2d 3d 08 59 1a bd 9d 9f 00 3d
       0.013187193 0.04245226 -0.037682563 0.03140222
0003e0 d0 fa e6 3c 81 f3 6d bd 2d f6 87 bc 4c fd 2c 3d
       0.028195769 -0.05809355 -0.016596878 0.04223375
0003f0 7f 50 9a bb a9 f2 0d 3d b2 50 46 3c e2 9b 2b bb
       -0.004709303 0.034655247 0.0121042 -0.0026185443

block2.conv2.bias f4 [32]
000000 b9 44 27 bc 4c 83 54 bd f0 85 c0 3c b7 2b 04 3d
       -0.010209256 -0.051883027 0.023501366 0.032268252
000010 c3 dd 17 3d 00 60 b0 3c 68 5d 05 3d a4 5f 56 bd
       0.037076723 0.021530151 0.032559782 -0.052337304
000020 50 c0 26 bd 5a 6c 12 bd c4 1c f3 3c 57 ed 2a 3d
       -0.040710747 -0.035747863 0.029676802 0.04173025
000030 bc 0f 02 3d 52 f2 e9 3c 21 78 5b bd d8 45 29 3d
       0.031753287 0.02855793 -0.05358136 0.041326374
000040 2d 04 cd 3c c0 96 72 bd 77 ae bf 3b 6d 35 7b bc
       0.025026405 -0.059225798 0.0058496553 -0.015332562
000050 5b 2a f1 bc 04 3f 04 bd f0 1f 24 bd 5f 20 77 bc
       -0.029439142 -0.03228666 -0.04006952 -0.015083401
000060 d8 05 0b 3a 59 b1 34 bd 27 37 42 3c 58 94 2f bd
       0.00053033 -0.044114444 0.01185397 -0.04286608
000070 2e f3 26 bd 39 c9 a1 3c 29 46 2d bd 54 ae 10 3d
       -0.040759258 0.01974927 -0.042303238 0.035322502
